Camera_code/trained.tflite (tflite, 86360 bytes, 29 tensors)

sequential/dense_1/MatMul i1 [2, 8] scale=0.005498134 zero_point=0
-0.450847 -0.5992966 0.049483206 -0.016494403 0.21992536 -0.13745335 0.69826305 -0.3078955
-0.450847 -0.043985073 -0.005498134 -0.47283953 -0.4838358 0.62128913 0.17594029 -0.57730407
00000000: ae93 09fd 28e7 7fc8 aef8 ffaa a871 2097

sequential/dense/Tensordot/MatMul i1 [8, 102] scale=0.0018831929 zero_point=0
0.16572097 -0.08474368 -0.101692416 -0.01318235 -0.07721091 0.14688905 0.054612596 -0.15442182
-0.1054588 -0.020715121 0.07532772 -0.16948736 0.01883193 -0.08474368 -0.14500585 0.0809773
0.062145367 0.20150164 0.022598315 0.016948737 -0.039547052 -0.21845038 0.20150164 0.19585207
-0.19396888 -0.050846208 -0.19585207 -0.15818821 0.0809773 0.0056495788 0.16948736 -0.12617393
0.054612596 0.17513694 0.16383779 0.16572097 -0.08662687 0.1337067 -0.1619546 -0.15065543
0.065911755 0.1054588 -0.214684 0.0809773 0.12994032 -0.1337067 0.20150164 0.214684
-0.1054588 -0.14123946 -0.17890333 0.111108385 0.1054588 0.06402856 0.12240754 -0.0263647
0.16760416 0.19961844 0.19020249 0.08662687 0.09980922 0.16760416 0.05837898 -0.11675796
-0.1355899 0.114874765 0.009415965 0.009415965 0.22974953 0.17137055 0.114874765 -0.11675796
0.12240754 -0.114874765 -0.19396888 -0.17702013 0.030131087 -0.22974953 0.17325374 -0.06402856
-0.1619546 0.12805712 -0.19020249 0.17513694 -0.17890333 -0.20338483 -0.08474368 -0.1600714
-0.047079824 -0.19961844 0.06402856 0.097926036 0.079094104 -0.22409996 0.097926036 -0.039547052
-0.03201428 0.0 0.17890333 0.21656719 0.14877224 -0.088510066 -0.028247893 0.16572097
-0.047079824 0.0112991575 0.022598315 0.0263647 0.18266971 -0.214684 0.16383779 0.082860485
0.0037663858 -0.19396888 0.20903441 0.1600714 0.09980922 0.016948737 0.18078652 -0.19961844
-0.14123946 0.12805712 0.10357561 0.11299157 -0.01318235 -0.088510066 0.0037663858 0.06779495
-0.23351592 -0.20338483 -0.19020249 -0.16760416 -0.13182351 0.12994032 0.18455291 0.124290735
-0.14312266 0.062145367 -0.13747308 0.039547052 -0.022598315 -0.22033358 0.07344452 -0.009415965
-0.01883193 0.065911755 -0.22033358 -0.17137055 0.01883193 0.124290735 -0.1355899 0.21656719
0.2128008 0.22974953 -0.12617393 -0.047079824 -0.048963018 0.19773525 0.07532772 0.12994032
0.20903441 0.18455291 0.0 -0.17513694 0.12805712 -0.0809773 0.2109176 -0.048963018
0.060262173 -0.0056495788 -0.19020249 0.14312266 0.23351592 -0.2128008 -0.03201428 0.14877224
0.030131087 -0.18455291 -0.22221677 0.22221677 -0.21845038 0.23163272 -0.14688905 -0.15253863
-0.22786634 0.16383779 -0.10922519 -0.03201428 -0.19961844 0.13747308 -0.214684 0.16948736
-0.01883193 -0.07344452 0.09980922 0.0527294 -0.14688905 0.1600714 0.13935627 -0.22598314
-0.048963018 -0.01883193 -0.01318235 0.09604284 -0.06779495 0.16948736 -0.12617393 -0.114874765
0.16383779 0.18078652 -0.107342 0.06402856 0.15630502 0.19773525 -0.048963018 -0.19585207
0.009415965 -0.13935627 -0.20338483 -0.1054588 -0.14877224 0.12994032 0.0037663858 -0.03201428
-0.18078652 -0.12994032 -0.07344452 -0.054612596 -0.050846208 0.12240754 0.024481509 -0.18078652
-0.20715122 0.09039326 0.08474368 -0.18266971 0.12805712 0.11864115 -0.04519663 0.214684
0.09980922 0.020715121 0.03766386 0.16572097 -0.01883193 -0.0037663858 0.030131087 -0.07344452
-0.12617393 0.05837898 0.065911755 0.11299157 -0.19208568 -0.0018831929 -0.17137055 -0.111108385
00000000: 58d3 caf9 d74e 1dae c8f5 28a6 0ad3 b32b
00000010: 216b 0c09 eb8c 6b68 99e5 98ac 2b03 5abd
00000020: 1d5d 5758 d247 aab0 2338 8e2b 45b9 6b72
00000030: c8b5 a13b 3822 41f2 596a 652e 3559 1fc2
00000040: b83d 0505 7a5b 3dc2 41c3 99a2 1086 5cde
00000050: aa44 9b5d a194 d3ab e796 2234 2a89 34eb
00000060: ef00 5f73 4fd1 f158 e706 0c0e 618e 572c
00000070: 0299 6f55 3509 6096 b544 373c f9d1 0224
00000080: 8494 9ba7 ba45 6242 b421 b715 f48b 27fb
00000090: f623 8ba5 0a42 b873 717a bde7 e669 2845
000000a0: 6f62 00a3 44d5 70e6 20fd 9b4c 7c8f ef4f
000000b0: 109e 8a76 8c7b b2af 8757 c6ef 9649 8e5a
000000c0: f6d9 351c b255 4a88 e6f6 f933 dc5a bdc3
000000d0: 5760 c722 5369 e698 05b6 94c8 b145 02ef
000000e0: a0bb d9e3 e541 0da0 9230 2d9f 443f e872
000000f0: 350b 1458 f6fe 10d9 bd1f 233c 9aff a5c5

sequential/model/conv_pw_13/Conv2D i1 [102, 1, 1, 102]
-43 -13 -62 -14 -16 -21 31 -53
-7 -5 -51 16 17 34 61 57
1 4 63 54 51 36 37 55
44 14 15 -14 64 -14 -44 -20
23 37 24 -12 -29 -74 23 -60
-58 -67 -20 -22 -36 -21 -88 -20
13 -40 -30 77 -3 -13 -44 60
72 49 42 18 -6 27 8 -36
51 34 -56 -23 -32 -74 -57 78
-9 -7 19 -48 -21 78 -10 41
-127 37 -73 6 50 18 -38 -10
0 -27 71 8 28 -4 -96 33
73 12 -11 -21 -18 -59 -16 36
38 16 6 33 -42 57 -5 -3
-66 36 -48 -25 39 8 -51 24
30 -14 38 2 -44 31 -74 4
-65 -12 0 -1 21 1 -61 -1
-113 -74 23 11 55 83 -66 107
2 73 35 -57 -34 -31 54 -29
11 -104 -12 -69 -15 -9 60 7
-56 22 -22 0 -24 -43 45 -25
-26 2 -20 52 -72 94 12 -11
-13 -33 42 19 -39 41 -80 8
-127 -4 29 -34 -20 -54 102 -25
-16 -11 -20 28 -1 -33 -74 -67
-19 -36 43 -35 37 4 16 61
78 -33 -33 -105 -127 4 59 30
14 -1 -7 -14 82 28 30 -25
-25 -38 46 -20 82 -3 66 -62
-42 10 -13 -15 -25 23 -60 52
10 -99 -7 -34 -1 -75 -74 -8
-16 35 62 40 -33 -55 -26 17
00000000: d5f3 c2f2 f0eb 1fcb f9fb cd10 1122 3d39
00000010: 0104 3f36 3324 2537 2c0e 0ff2 40f2 d4ec
00000020: 1725 18f4 e3b6 17c4 c6bd ecea dceb a8ec
00000030: 0dd8 e24d fdf3 d43c 4831 2a12 fa1b 08dc
00000040: 3322 c8e9 e0b6 c74e f7f9 13d0 eb4e f629
00000050: 8125 b706 3212 daf6 00e5 4708 1cfc a021
00000060: 490c f5eb eec5 f024 2610 0621 d639 fbfd
00000070: be24 d0e7 2708 cd18 1ef2 2602 d41f b604
00000080: bff4 00ff 1501 c3ff 8fb6 170b 3753 be6b
00000090: 0249 23c7 dee1 36e3 0b98 f4bb f1f7 3c07
000000a0: c816 ea00 e8d5 2de7 e602 ec34 b85e 0cf5
000000b0: f3df 2a13 d929 b008 81fc 1dde ecca 66e7
000000c0: f0f5 ec1c ffdf b6bd eddc 2bdd 2504 103d
000000d0: 4edf df97 8104 3b1e 0eff f9f2 521c 1ee7
000000e0: e7da 2eec 52fd 42c2 d60a f3f1 e717 c434
000000f0: 0a9d f9de ffb5 b6f8 f023 3e28 dfc9 e611

sequential/model/conv_dw_13_bn/FusedBatchNormV3;sequential/model/conv_dw_13/depthwise;sequential/model/conv_pw_13/Conv2D i1 [1, 3, 3, 102]
-78 13 -14 19 -50 -101 -64 -119
-13 -70 92 127 -120 -25 21 -127
-64 2 -67 79 -9 22 118 -57
-68 -50 -8 -31 -89 5 12 120
2 92 33 -114 -70 73 61 92
-14 105 -37 -52 91 -62 -34 -116
-53 -77 -90 25 -52 81 63 -99
80 63 -31 26 -67 -23 33 112
-127 -24 79 127 -120 -89 -127 97
-84 7 -57 63 63 32 23 83
-72 -43 38 -6 125 -78 -121 -37
-2 -94 -53 -127 -5 -68 -127 -105
51 30 -6 64 -18 9 -61 30
-127 -67 -60 -70 -81 -112 -19 -108
127 101 -127 -85 -127 -103 -127 -46
7 89 -120 127 38 -127 -117 -127
70 -127 -127 127 55 91 -29 121
31 -55 -53 36 71 104 -76 66
-127 -77 127 -47 -13 -78 -73 -124
-28 -12 -118 112 -34 -99 114 106
-122 114 -30 -44 34 61 -110 -57
127 39 -102 -79 -97 119 -75 127
-111 70 76 43 28 127 -6 -83
97 -100 88 -77 17 -23 66 -68
-122 -109 35 -127 -54 -86 81 106
-109 27 -54 127 -69 53 -7 22
-34 -114 -75 -6 -3 -66 81 109
-125 -48 31 -117 -49 11 -60 78
-2 28 70 -49 -64 -105 10 -20
-73 11 21 127 5 89 18 -95
-62 -14 48 95 -14 127 -45 -45
81 -44 -37 -118 -43 -85 -80 24
00000000: b20d f213 ce9b c089 f3ba 5c7f 88e7 1581
00000010: c002 bd4f f716 76c7 bcce f8e1 a705 0c78
00000020: 025c 218e ba49 3d5c f269 dbcc 5bc2 de8c
00000030: cbb3 a619 cc51 3f9d 503f e11a bde9 2170
00000040: 81e8 4f7f 88a7 8161 ac07 c73f 3f20 1753
00000050: b8d5 26fa 7db2 87db fea2 cb81 fbbc 8197
00000060: 331e fa40 ee09 c31e 81bd c4ba af90 ed94
00000070: 7f65 81ab 8199 81d2 0759 887f 2681 8b81
00000080: 4681 817f 375b e379 1fc9 cb24 4768 b442
00000090: 81b3 7fd1 f3b2 b784 e4f4 8a70 de9d 726a
000000a0: 8672 e2d4 223d 92c7 7f27 9ab1 9f77 b57f
000000b0: 9146 4c2b 1c7f faad 619c 58b3 11e9 42bc
000000c0: 8693 2381 caaa 516a 931b ca7f bb35 f916
000000d0: de8e b5fa fdbe 516d 83d0 1f8b cf0b c44e
000000e0: fe1c 46cf c097 0aec b70b 157f 0559 12a1
000000f0: c2f2 305f f27f d3d3 51d4 db8a d5ab b018

sequential/model/conv_pw_12/Conv2D i1 [102, 1, 1, 51]
32 -2 100 14 -64 98 -50 -89
-16 -53 29 67 -127 13 -6 9
-63 -9 -47 -13 -50 -3 -4 19
62 -5 54 -31 11 21 2 -30
-13 -38 -3 -62 -20 56 32 56
-5 30 -44 -12 42 -14 101 -104
-13 -12 12 -100 -36 -2 7 -59
8 27 -127 19 -29 106 26 11
-94 79 -57 19 -31 50 7 -12
52 36 16 -111 -43 7 -103 -1
2 -77 -20 -62 107 -75 30 73
-95 -12 -36 -2 12 38 24 92
86 98 -89 -25 -64 117 -50 8
48 50 123 -127 85 4 111 103
12 -68 -29 -15 -38 13 89 -75
-73 31 23 47 -19 -71 -49 41
116 -46 100 23 117 -87 -11 67
19 -86 31 8 56 20 19 95
-8 -13 30 119 89 -56 -31 -19
-60 -43 13 -50 51 5 -85 -72
127 -7 93 33 64 -48 18 -67
-79 88 -48 56 -23 -17 -28 -76
-14 38 -80 -24 -79 45 6 5
70 72 115 35 -79 -23 12 -1
-13 -16 -28 -45 47 -6 -57 75
126 -26 -86 -100 -127 -70 12 60
-76 36 -33 -13 5 17 66 9
53 27 67 -12 42 -31 42 48
-39 96 -25 -37 81 -21 15 124
74 8 16 -74 37 -52 -14 35
-16 3 120 -47 23 8 52 48
27 22 18 70 -33 -57 -3 -48
00000000: 20fe 640e c062 cea7 f0cb 1d43 810d fa09
00000010: c1f7 d1f3 cefd fc13 3efb 36e1 0b15 02e2
00000020: f3da fdc2 ec38 2038 fb1e d4f4 2af2 6598
00000030: f3f4 0c9c dcfe 07c5 081b 8113 e36a 1a0b
00000040: a24f c713 e132 07f4 3424 1091 d507 99ff
00000050: 02b3 ecc2 6bb5 1e49 a1f4 dcfe 0c26 185c
00000060: 5662 a7e7 c075 ce08 3032 7b81 5504 6f67
00000070: 0cbc e3f1 da0d 59b5 b71f 172f edb9 cf29
00000080: 74d2 6417 75a9 f543 13aa 1f08 3814 135f
00000090: f8f3 1e77 59c8 e1ed c4d5 0dce 3305 abb8
000000a0: 7ff9 5d21 40d0 12bd b158 d038 e9ef e4b4
000000b0: f226 b0e8 b12d 0605 4648 7323 b1e9 0cff
000000c0: f3f0 e4d3 2ffa c74b 7ee6 aa9c 81ba 0c3c
000000d0: b424 dff3 0511 4209 351b 43f4 2ae1 2a30
000000e0: d960 e7db 51eb 0f7c 4a08 10b6 25cc f223
000000f0: f003 78d1 1708 3430 1b16 1246 dfc7 fdd0

sequential/model/conv_dw_12_bn/FusedBatchNormV3;sequential/model/conv_dw_12/depthwise i1 [1, 3, 3, 51]
-59 -75 -127 127 -127 -126 118 -37
-101 127 77 -124 -79 77 -110 -93
120 -127 -76 31 -36 48 87 -127
121 -66 -127 95 113 -120 -25 55
119 -45 18 -127 60 3 1 82
58 -29 -80 -76 -47 -6 93 82
122 -121 109 -80 -57 -114 127 -93
-127 79 -58 -127 108 107 -127 -77
78 -93 -58 127 -75 -67 39 -47
26 127 -15 127 -67 -102 127 127
-127 -32 127 127 -14 22 -107 127
-6 15 79 -28 110 -70 -127 -88
2 93 94 127 -127 127 -28 -20
-13 21 -53 -15 63 -34 -29 42
29 -32 -29 16 -56 -24 70 -37
-30 -12 -69 16 29 -76 17 6
-45 21 -11 -7 -20 10 -4 -26
31 -28 14 7 13 2 -57 114
-29 -11 -4 -35 -5 3 4 -58
37 -118 -72 -103 126 -78 -85 79
-27 -104 82 93 -108 -127 18 -127
78 -66 -53 -100 100 -124 90 72
-45 104 -127 -87 94 127 -124 49
-42 54 97 127 24 84 112 -127
31 43 101 -126 -111 -79 53 127
127 123 -117 7 -127 -127 -111 119
-43 -46 127 -79 -102 119 127 -127
-115 50 -74 50 -23 -85 -127 95
-127 115 70 -69 85 -91 -115 89
97 -98 53 -32 56 127 110 -20
74 123 -103 33 -1 127 -127 -108
-127 65 105 113 120 -115 -41 -19
00000000: c5b5 817f 8182 76db 9b7f 4d84 b14d 92a3
00000010: 7881 b41f dc30 5781 79be 815f 7188 e737
00000020: 77d3 1281 3c03 0152 3ae3 b0b4 d1fa 5d52
00000030: 7a87 6db0 c78e 7fa3 814f c681 6c6b 81b3
00000040: 4ea3 c67f b5bd 27d1 1a7f f17f bd9a 7f7f
00000050: 81e0 7f7f f216 957f fa0f 4fe4 6eba 81a8
00000060: 025d 5e7f 817f e4ec f315 cbf1 3fde e32a
00000070: 1de0 e310 c8e8 46db e2f4 bb10 1db4 1106
00000080: d315 f5f9 ec0a fce6 1fe4 0e07 0d02 c772
00000090: e3f5 fcdd fb03 04c6 258a b899 7eb2 ab4f
000000a0: e598 525d 9481 1281 4ebe cb9c 6484 5a48
000000b0: d368 81a9 5e7f 8431 d636 617f 1854 7081
000000c0: 1f2b 6582 91b1 357f 7f7b 8b07 8181 9177
000000d0: d5d2 7fb1 9a77 7f81 8d32 b632 e9ab 815f
000000e0: 8173 46bb 55a5 8d59 619e 35e0 387f 6eec
000000f0: 4a7b 9921 ff7f 8194 8141 6971 788d d7ed

sequential/model/conv_pw_11/Conv2D i1 [51, 1, 1, 51]
-25 33 -16 -8 -13 -36 -18 -44
20 -3 -37 39 10 -13 9 -70
47 67 -27 62 -73 33 -11 -5
35 -6 0 34 17 26 17 -127
31 -12 49 60 55 119 3 -46
-74 -29 53 6 127 -67 -3 31
112 60 -50 26 -109 106 -6 -50
13 100 -15 26 -127 -39 1 29
-23 76 -113 -14 -13 -23 28 -77
-35 0 -9 20 -46 -31 -8 -2
-57 6 -76 27 10 -42 -12 -36
30 56 37 2 -77 5 102 25
44 47 -49 -40 -78 -61 -24 -3
21 -7 64 30 -11 23 -3 -27
37 66 10 -2 31 -61 -39 16
51 -47 36 -29 10 24 -17 -30
-8 -12 29 65 -4 12 -18 -33
-30 25 63 64 19 -32 -12 -24
127 12 -24 -97 2 -64 25 -59
16 33 4 92 -39 44 -64 35
-72 -29 -50 -126 -24 -83 -27 6
-49 9 -22 33 10 -38 25 26
17 -15 -25 -50 33 -94 5 14
-66 92 -27 7 -93 -4 53 -1
-5 -10 -62 -20 24 -92 -127 -26
53 -9 85 -21 97 24 42 -45
-48 -4 -7 -35 -7 -26 -35 45
-19 46 36 -22 5 -19 -59 127
0 16 9 8 -27 17 20 -34
66 34 25 -6 -40 -39 33 -14
30 -2 34 26 56 17 -6 31
0 45 -21 -15 -23 15 -4 34
00000000: e721 f0f8 f3dc eed4 14fd db27 0af3 09ba
00000010: 2f43 e53e b721 f5fb 23fa 0022 111a 1181
00000020: 1ff4 313c 3777 03d2 b6e3 3506 7fbd fd1f
00000030: 703c ce1a 936a face 0d64 f11a 81d9 011d
00000040: e94c 8ff2 f3e9 1cb3 dd00 f714 d2e1 f8fe
00000050: c706 b41b 0ad6 f4dc 1e38 2502 b305 6619
00000060: 2c2f cfd8 b2c3 e8fd 15f9 401e f517 fde5
00000070: 2542 0afe 1fc3 d910 33d1 24e3 0a18 efe2
00000080: f8f4 1d41 fc0c eedf e219 3f40 13e0 f4e8
00000090: 7f0c e89f 02c0 19c5 1021 045c d92c c023
000000a0: b8e3 ce82 e8ad e506 cf09 ea21 0ada 191a
000000b0: 11f1 e7ce 21a2 050e be5c e507 a3fc 35ff
000000c0: fbf6 c2ec 18a4 81e6 35f7 55eb 6118 2ad3
000000d0: d0fc f9dd f9e6 dd2d ed2e 24ea 05ed c57f
000000e0: 0010 0908 e511 14de 4222 19fa d8d9 21f2
000000f0: 1efe 221a 3811 fa1f 002d ebf1 e90f fc22

sequential/model/conv_dw_11_bn/FusedBatchNormV3;sequential/model/conv_dw_11/depthwise;sequential/model/conv_dw_12/depthwise i1 [1, 3, 3, 51]
44 41 -97 5 -1 -21 78 -53
-127 21 127 -100 -92 127 -26 -16
97 -127 88 5 48 23 36 14
57 -117 -76 29 39 -119 24 127
56 78 -53 127 41 -118 3 -27
0 23 -3 -104 -18 68 -58 -67
112 -31 -65 2 127 -43 27 -56
-50 76 -34 68 -127 3 -12 -10
97 -85 -56 127 -76 -107 10 42
127 63 -4 124 4 -101 29 82
-10 13 89 -66 14 -79 29 -85
-46 -14 34 38 46 72 -36 -87
99 -13 -11 -57 -127 -43 30 45
-73 -38 -6 -36 55 -71 69 30
94 -70 -30 107 -16 -58 49 -127
120 43 51 64 72 53 124 -127
-43 -17 -6 -87 16 90 27 40
-27 125 -26 -46 19 -8 7 10
-11 -127 -38 17 -34 -65 88 -39
-102 -61 79 -52 122 -127 -72 48
-21 -71 -127 69 127 -101 82 -76
85 42 -97 127 127 112 30 32
35 76 -38 -55 35 -15 -109 -84
56 -44 59 -47 117 105 -50 96
15 74 127 34 -84 -127 12 -65
-127 57 -102 -124 127 114 -127 127
13 -127 53 -39 41 -120 33 8
-66 100 -53 -31 82 -117 122 75
44 34 -22 -33 -1 -100 -76 127
-1 -127 -36 -7 49 38 -127 -16
54 -63 127 71 127 -19 127 -73
-4 78 -122 -9 -9 -121 -127 -52
00000000: 2c29 9f05 ffeb 4ecb 8115 7f9c a47f e6f0
00000010: 6181 5805 3017 240e 398b b41d 2789 187f
00000020: 384e cb7f 298a 03e5 0017 fd98 ee44 c6bd
00000030: 70e1 bf02 7fd5 1bc8 ce4c de44 8103 f4f6
00000040: 61ab c87f b495 0a2a 7f3f fc7c 049b 1d52
00000050: f60d 59be 0eb1 1dab d2f2 2226 2e48 dca9
00000060: 63f3 f5c7 81d5 1e2d b7da fadc 37b9 451e
00000070: 5eba e26b f0c6 3181 782b 3340 4835 7c81
00000080: d5ef faa9 105a 1b28 e57d e6d2 13f8 070a
00000090: f581 da11 debf 58d9 9ac3 4fcc 7a81 b830
000000a0: ebb9 8145 7f9b 52b4 552a 9f7f 7f70 1e20
000000b0: 234c dac9 23f1 93ac 38d4 3bd1 7569 ce60
000000c0: 0f4a 7f22 ac81 0cbf 8139 9a84 7f72 817f
000000d0: 0d81 35d9 2988 2108 be64 cbe1 528b 7a4b
000000e0: 2c22 eadf ff9c b47f ff81 dcf9 3126 81f0
000000f0: 36c1 7f47 7fed 7fb7 fc4e 86f7 f787 81cc

sequential/model/conv_pw_10/Conv2D i1 [51, 1, 1, 51]
-24 -4 15 29 58 -2 12 42
21 -48 -34 -81 33 127 11 -10
68 46 15 8 26 54 28 84
-17 37 -63 -57 -5 99 -30 -35
6 37 64 -35 -11 52 56 -56
12 -35 74 45 -44 -41 -66 22
-65 -40 -20 -13 -11 -33 76 41
-38 -83 -29 -105 68 -15 30 14
-38 12 4 17 -54 74 55 -14
-41 8 45 -15 -7 -97 -50 -10
-8 -42 -39 86 -50 32 34 5
-10 7 -22 17 -60 -37 -38 25
59 -12 6 24 -66 127 58 -17
-66 68 -28 -12 -24 29 63 -112
35 31 -71 -6 41 -30 -32 -2
-10 -90 -12 127 -18 85 -25 9
3 -5 30 -41 -12 40 -1 -34
12 -46 59 -79 -26 17 -20 5
38 65 -60 -8 -2 37 -19 -20
25 -66 -24 -53 -4 -7 -40 5
-3 0 41 -43 -9 -83 12 -29
-51 -16 -19 29 94 -14 47 17
26 104 19 -1 -4 -56 -12 14
-60 76 32 -11 -34 -72 -57 -70
-44 127 -17 97 22 19 44 60
-3 -69 -42 -40 -65 19 -12 0
22 -26 -31 101 -11 -69 -19 -30
61 -14 37 -9 27 67 15 35
60 106 -127 -57 24 1 74 -95
-4 4 -26 -16 16 -28 -15 86
-83 65 -19 17 -19 -62 -30 84
68 68 30 -99 65 10 29 -37
00000000: e8fc 0f1d 3afe 0c2a 15d0 deaf 217f 0bf6
00000010: 442e 0f08 1a36 1c54 ef25 c1c7 fb63 e2dd
00000020: 0625 40dd f534 38c8 0cdd 4a2d d4d7 be16
00000030: bfd8 ecf3 f5df 4c29 daad e397 44f1 1e0e
00000040: da0c 0411 ca4a 37f2 d708 2df1 f99f cef6
00000050: f8d6 d956 ce20 2205 f607 ea11 c4db da19
00000060: 3bf4 0618 be7f 3aef be44 e4f4 e81d 3f90
00000070: 231f b9fa 29e2 e0fe f6a6 f47f ee55 e709
00000080: 03fb 1ed7 f428 ffde 0cd2 3bb1 e611 ec05
00000090: 2641 c4f8 fe25 edec 19be e8cb fcf9 d805
000000a0: fd00 29d5 f7ad 0ce3 cdf0 ed1d 5ef2 2f11
000000b0: 1a68 13ff fcc8 f40e c44c 20f5 deb8 c7ba
000000c0: d47f ef61 1613 2c3c fdbb d6d8 bf13 f400
000000d0: 16e6 e165 f5bb ede2 3df2 25f7 1b43 0f23
000000e0: 3c6a 81c7 1801 4aa1 fc04 e6f0 10e4 f156
000000f0: ad41 ed11 edc2 e254 4444 1e9d 410a 1ddb

sequential/model/conv_dw_10_bn/FusedBatchNormV3;sequential/model/conv_dw_10/depthwise;sequential/model/conv_dw_12/depthwise i1 [1, 3, 3, 51]
127 47 109 13 -127 -50 127 127
127 127 -125 -117 -122 -11 -127 3
122 -124 50 -127 -111 -48 127 127
78 29 114 33 -72 49 46 -16
-76 34 33 23 100 -54 127 97
-76 -68 95 105 -16 -55 -15 -127
-105 65 62 18 -13 127 61 -48
-22 121 54 -13 101 45 32 -68
71 -91 -56 127 19 -2 -1 33
127 87 -16 127 69 -34 91 52
45 80 -36 -57 -28 31 16 127
4 -109 95 -16 38 23 -32 -127
-51 87 12 -46 127 116 116 76
77 -24 -65 -69 88 116 95 111
-45 -111 -127 -23 -66 -34 120 -127
53 -108 -127 -25 80 111 47 37
101 -8 -66 43 -95 -29 -127 17
42 27 78 -57 -35 42 -40 -64
91 88 -12 -33 -11 -108 -85 30
84 -39 115 36 87 -7 -127 35
44 12 85 -127 -127 -9 20 -103
127 29 -23 36 -39 -39 -13 -12
18 -16 48 106 -9 100 34 74
-127 -47 -111 22 60 27 35 30
127 72 31 53 46 -38 106 55
-91 -58 62 127 20 25 -79 90
-87 -9 35 29 -71 56 -123 34
-52 127 -14 16 -43 56 127 -47
-54 -5 -71 -77 16 86 -42 104
76 127 59 12 -12 -86 11 55
22 127 -31 116 127 127 1 -111
-107 67 127 -109 -2 112 82 -27
00000000: 7f2f 6d0d 81ce 7f7f 7f7f 838b 86f5 8103
00000010: 7a84 3281 91d0 7f7f 4e1d 7221 b831 2ef0
00000020: b422 2117 64ca 7f61 b4bc 5f69 f0c9 f181
00000030: 9741 3e12 f37f 3dd0 ea79 36f3 652d 20bc
00000040: 47a5 c87f 13fe ff21 7f57 f07f 45de 5b34
00000050: 2d50 dcc7 e41f 107f 0493 5ff0 2617 e081
00000060: cd57 0cd2 7f74 744c 4de8 bfbb 5874 5f6f
00000070: d391 81e9 bede 7881 3594 81e7 506f 2f25
00000080: 65f8 be2b a1e3 8111 2a1b 4ec7 dd2a d8c0
00000090: 5b58 f4df f594 ab1e 54d9 7324 57f9 8123
000000a0: 2c0c 5581 81f7 1499 7f1d e924 d9d9 f3f4
000000b0: 12f0 306a f764 224a 81d1 9116 3c1b 231e
000000c0: 7f48 1f35 2eda 6a37 a5c6 3e7f 1419 b15a
000000d0: a9f7 231d b938 8522 cc7f f210 d538 7fd1
000000e0: cafb b9b3 1056 d668 4c7f 3b0c f4aa 0b37
000000f0: 167f e174 7f7f 0191 9543 7f93 fe70 52e5

sequential/model/conv_pw_9/Conv2D i1 [51, 1, 1, 51]
63 -82 -30 -127 -37 -116 -15 -14
-28 61 -46 60 -26 5 -104 14
97 -26 -24 3 65 3 39 37
56 6 -62 -23 -90 17 -43 -106
10 -73 -48 67 -1 -74 70 -18
-116 -92 -1 -48 -34 22 77 1
10 -39 -23 -127 -47 28 -48 3
37 -4 26 18 -38 5 -49 -18
-46 -27 1 16 -55 -1 77 36
-11 -12 -58 22 28 32 12 3
19 -57 27 39 71 -5 -9 -32
-92 -50 4 2 114 7 -21 56
-20 -24 -23 1 -25 -77 19 -58
0 19 -63 127 -60 18 24 88
3 61 60 27 60 -4 37 13
69 27 65 -41 -8 19 43 -57
5 13 -123 25 -31 -5 10 -30
-123 -6 24 88 9 63 -20 41
-79 -3 -23 -60 38 27 8 -37
-31 -14 127 73 -10 22 99 -77
-4 -38 -74 -77 -42 -50 -18 8
-27 15 2 -68 -7 50 -2 -29
-67 -30 57 46 -32 -32 -52 81
-7 24 -26 35 23 -101 -10 43
65 -83 -32 63 -30 13 -1 -5
-72 -86 -33 -57 -33 -8 -19 41
84 5 30 36 7 70 14 7
4 9 -22 28 34 -8 -10 -14
18 -4 13 15 13 36 5 -14
-20 25 28 61 -72 -24 3 49
-2 -22 23 17 -22 6 23 -31
127 -41 44 1 22 -19 23 69
00000000: 3fae e281 db8c f1f2 e43d d23c e605 980e
00000010: 61e6 e803 4103 2725 3806 c2e9 a611 d596
00000020: 0ab7 d043 ffb6 46ee 8ca4 ffd0 de16 4d01
00000030: 0ad9 e981 d11c d003 25fc 1a12 da05 cfee
00000040: d2e5 0110 c9ff 4d24 f5f4 c616 1c20 0c03
00000050: 13c7 1b27 47fb f7e0 a4ce 0402 7207 eb38
00000060: ece8 e901 e7b3 13c6 0013 c17f c412 1858
00000070: 033d 3c1b 3cfc 250d 451b 41d7 f813 2bc7
00000080: 050d 8519 e1fb 0ae2 85fa 1858 093f ec29
00000090: b1fd e9c4 261b 08db e1f2 7f49 f616 63b3
000000a0: fcda b6b3 d6ce ee08 e50f 02bc f932 fee3
000000b0: bde2 392e e0e0 cc51 f918 e623 179b f62b
000000c0: 41ad e03f e20d fffb b8aa dfc7 dff8 ed29
000000d0: 5405 1e24 0746 0e07 0409 ea1c 22f8 f6f2
000000e0: 12fc 0d0f 0d24 05f2 ec19 1c3d b8e8 0331
000000f0: feea 1711 ea06 17e1 7fd7 2c01 16ed 1745

sequential/model/conv_dw_9_bn/FusedBatchNormV3;sequential/model/conv_dw_9/depthwise;sequential/model/conv_dw_12/depthwise i1 [1, 3, 3, 51]
-122 121 37 104 87 4 6 33
-87 -95 -89 -70 57 127 -94 12
-8 28 10 56 -63 51 -94 -111
73 66 62 -8 127 51 111 -31
-63 114 9 -110 -81 33 -97 42
103 36 -72 -58 -104 76 -103 -56
52 13 -6 -42 -8 48 115 67
-6 127 114 -76 -83 -110 -127 81
40 -90 -114 -68 10 -117 99 -110
87 -79 -120 48 60 66 -66 100
114 38 -116 -114 4 -38 -114 -92
53 127 86 46 102 -55 -127 -126
106 -127 45 127 86 -125 -79 97
68 92 54 14 -13 28 -78 -76
-73 -78 66 97 -87 14 -6 10
12 57 -73 21 -98 -70 -127 70
55 -24 118 44 111 -49 -51 58
23 -85 -80 35 -4 49 127 31
-58 -38 -84 49 -103 -52 47 39
-6 -127 100 62 127 90 10 71
127 -81 -107 -98 22 127 117 -119
-126 -92 -98 -56 96 -82 127 -94
-108 82 112 42 -127 68 93 124
-91 -103 127 -127 -50 -92 34 96
110 91 114 -127 -117 -94 91 -24
101 74 127 -91 -116 93 127 126
127 68 104 97 -67 -127 -127 -1
65 48 -114 -79 -127 -127 -127 127
-108 19 -127 -127 23 88 127 -81
101 127 64 -127 -127 41 -112 -92
-68 53 119 90 72 59 -74 -101
-87 127 -78 127 28 68 -127 -127
00000000: 8679 2568 5704 0621 a9a1 a7ba 397f a20c
00000010: f81c 0a38 c133 a291 4942 3ef8 7f33 6fe1
00000020: c172 0992 af21 9f2a 6724 b8c6 984c 99c8
00000030: 340d fad6 f830 7343 fa7f 72b4 ad92 8151
00000040: 28a6 8ebc 0a8b 6392 57b1 8830 3c42 be64
00000050: 7226 8c8e 04da 8ea4 357f 562e 66c9 8182
00000060: 6a81 2d7f 5683 b161 445c 360e f31c b2b4
00000070: b7b2 4261 a90e fa0a 0c39 b715 9eba 8146
00000080: 37e8 762c 6fcf cd3a 17ab b023 fc31 7f1f
00000090: c6da ac31 99cc 2f27 fa81 643e 7f5a 0a47
000000a0: 7faf 959e 167f 7589 82a4 9ec8 60ae 7fa2
000000b0: 9452 702a 8144 5d7c a599 7f81 cea4 2260
000000c0: 6e5b 7281 8ba2 5be8 654a 7fa5 8c5d 7f7e
000000d0: 7f44 6861 bd81 81ff 4130 8eb1 8181 817f
000000e0: 9413 8181 1758 7faf 657f 4081 8129 90a4
000000f0: bc35 775a 483b b69b a97f b27f 1c44 8181

sequential/model/conv_pw_8/Conv2D i1 [51, 1, 1, 51]
-25 19 -3 41 -10 2 46 -50
-15 -59 25 -80 16 -40 -46 10
28 -4 10 -21 -41 -69 15 -84
47 -32 8 -44 -5 -14 22 -23
42 -29 -99 -2 9 127 97 -20
65 -63 73 -6 -49 -26 34 14
-13 -36 45 10 15 6 -20 -20
-11 9 31 15 -29 24 6 -5
16 -32 27 81 16 127 -1 -79
-7 14 -23 -56 -4 1 -7 0
-11 76 -36 54 2 -11 -25 -1
30 27 -25 20 101 -14 -15 14
0 76 -25 -44 -11 6 -11 65
-1 40 112 111 8 11 54 -87
22 -50 -4 14 -57 -14 -28 34
18 -32 8 -12 -6 -19 21 18
127 -88 -9 -76 19 -24 30 102
-16 4 16 74 34 -34 10 68
-21 -30 95 -11 -1 9 -35 -43
-7 -8 125 33 28 -53 30 45
-50 -7 -3 30 8 21 -33 -2
13 -43 10 41 -8 -15 -20 86
-58 -49 22 -46 127 -25 51 95
13 -9 1 -29 41 61 -58 6
-27 55 -31 3 -33 0 -80 -5
-20 8 19 35 51 -38 -23 -3
22 38 8 127 -4 17 8 24
14 35 -2 75 -21 -25 -4 15
11 1 52 34 -32 20 -2 13
43 -6 -53 -19 48 -14 -15 -48
-22 -30 16 0 -6 -3 -9 -18
-8 -11 -2 -2 -25 -27 -32 14
00000000: e713 fd29 f602 2ece f1c5 19b0 10d8 d20a
00000010: 1cfc 0aeb d7bb 0fac 2fe0 08d4 fbf2 16e9
00000020: 2ae3 9dfe 097f 61ec 41c1 49fa cfe6 220e
00000030: f3dc 2d0a 0f06 ecec f509 1f0f e318 06fb
00000040: 10e0 1b51 107f ffb1 f90e e9c8 fc01 f900
00000050: f54c dc36 02f5 e7ff 1e1b e714 65f2 f10e
00000060: 004c e7d4 f506 f541 ff28 706f 080b 36a9
00000070: 16ce fc0e c7f2 e422 12e0 08f4 faed 1512
00000080: 7fa8 f7b4 13e8 1e66 f004 104a 22de 0a44
00000090: ebe2 5ff5 ff09 ddd5 f9f8 7d21 1ccb 1e2d
000000a0: cef9 fd1e 0815 dffe 0dd5 0a29 f8f1 ec56
000000b0: c6cf 16d2 7fe7 335f 0df7 01e3 293d c606
000000c0: e537 e103 df00 b0fb ec08 1323 33da e9fd
000000d0: 1626 087f fc11 0818 0e23 fe4b ebe7 fc0f
000000e0: 0b01 3422 e014 fe0d 2bfa cbed 30f2 f1d0
000000f0: eae2 1000 fafd f7ee f8f5 fefe e7e5 e00e

sequential/model/conv_dw_8_bn/FusedBatchNormV3;sequential/model/conv_dw_8/depthwise;sequential/model/conv_dw_12/depthwise i1 [1, 3, 3, 51]
-6 -1 -24 24 -71 8 -14 -11
2 -38 1 117 26 -21 20 16
35 2 107 18 -25 -10 127 88
-56 -66 -94 21 1 2 -7 10
15 10 -47 -8 -1 -5 -16 -37
-39 33 14 -7 -6 40 14 52
1 22 22 63 -7 -32 -4 33
-127 -42 19 6 14 27 70 -50
-3 6 -37 29 -9 2 74 -57
46 76 127 -40 -127 71 -23 34
70 66 -3 13 73 38 -76 127
13 -60 -42 -48 94 39 -3 -37
24 -10 77 71 1 127 -16 -1
-24 16 29 17 -9 5 5 -29
2 92 22 -10 19 -2 12 5
68 15 -23 -43 126 91 -41 -45
15 12 0 -4 -11 22 17 3
-43 -5 24 -9 0 -12 -21 9
6 -3 -8 25 15 -15 -27 50
66 55 40 44 18 -117 26 -44
74 0 70 47 127 45 -40 32
-69 44 -17 59 64 -60 42 15
51 78 -19 -127 -20 -11 127 92
127 2 28 83 -51 14 24 -108
-46 -104 127 55 -2 -36 34 16
-103 91 60 -31 127 127 127 127
127 -114 -127 103 127 127 127 16
127 -127 127 -127 127 -127 -127 127
-127 127 11 118 94 67 93 -127
-127 24 127 -50 127 127 127 -127
-28 119 -127 -127 -127 125 127 -127
-127 127 127 127 127 127 19 40
00000000: faff e818 b908 f2f5 02da 0175 1aeb 1410
00000010: 2302 6b12 e7f6 7f58 c8be a215 0102 f90a
00000020: 0f0a d1f8 fffb f0db d921 0ef9 fa28 0e34
00000030: 0116 163f f9e0 fc21 81d6 1306 0e1b 46ce
00000040: fd06 db1d f702 4ac7 2e4c 7fd8 8147 e922
00000050: 4642 fd0d 4926 b47f 0dc4 d6d0 5e27 fddb
00000060: 18f6 4d47 017f f0ff e810 1d11 f705 05e3
00000070: 025c 16f6 13fe 0c05 440f e9d5 7e5b d7d3
00000080: 0f0c 00fc f516 1103 d5fb 18f7 00f4 eb09
00000090: 06fd f819 0ff1 e532 4237 282c 128b 1ad4
000000a0: 4a00 462f 7f2d d820 bb2c ef3b 40c4 2a0f
000000b0: 334e ed81 ecf5 7f5c 7f02 1c53 cd0e 1894
000000c0: d298 7f37 fedc 2210 995b 3ce1 7f7f 7f7f
000000d0: 7f8e 8167 7f7f 7f10 7f81 7f81 7f81 817f
000000e0: 817f 0b76 5e43 5d81 8118 7fce 7f7f 7f81
000000f0: e477 8181 817d 7f81 817f 7f7f 7f7f 1328

sequential/model/conv_pw_7/Conv2D i1 [51, 1, 1, 51]
-43 65 -23 5 59 80 11 -41
-30 17 -86 13 -2 -4 -85 57
-7 22 35 -37 -43 -67 -31 49
-17 13 -18 38 17 -48 -30 102
68 35 -37 -50 17 -9 14 12
-1 17 -24 7 -127 -6 40 2
-25 39 -30 31 -8 -44 12 -45
115 -12 74 14 -38 -4 -17 -101
66 23 19 65 88 8 43 50
66 -20 45 -107 46 -14 -90 -18
-35 -66 -78 -66 88 50 -9 -34
-54 13 1 12 63 15 -57 74
-26 -37 -66 10 88 127 -36 58
26 21 12 -20 -7 41 -19 -26
-4 -4 -5 -28 40 22 -22 -11
65 -1 51 41 5 45 15 14
14 -127 -14 18 8 24 11 7
-3 5 5 9 -22 -113 -15 17
-34 54 -34 -5 -9 -13 16 -20
-35 -23 -21 4 -18 51 50 35
19 10 127 -14 19 -84 -30 1
18 51 -36 4 26 -22 -66 17
-45 20 -15 42 -13 74 -65 36
18 45 -89 2 -36 12 -12 -56
-3 -22 -35 -31 35 19 -3 22
-2 47 11 -10 5 -23 -36 127
26 9 -29 -1 25 15 42 11
34 29 16 -16 17 -45 -14 61
-4 15 29 -23 16 33 7 22
-19 30 -23 -24 -56 28 -13 -21
28 -1 -36 27 -64 15 -15 10
-16 -16 -10 2 4 -21 37 -8
00000000: d541 e905 3b50 0bd7 e211 aa0d fefc ab39
00000010: f916 23db d5bd e131 ef0d ee26 11d0 e266
00000020: 4423 dbce 11f7 0e0c ff11 e807 81fa 2802
00000030: e727 e21f f8d4 0cd3 73f4 4a0e dafc ef9b
00000040: 4217 1341 5808 2b32 42ec 2d95 2ef2 a6ee
00000050: ddbe b2be 5832 f7de ca0d 010c 3f0f c74a
00000060: e6db be0a 587f dc3a 1a15 0cec f929 ede6
00000070: fcfc fbe4 2816 eaf5 41ff 3329 052d 0f0e
00000080: 0e81 f212 0818 0b07 fd05 0509 ea8f f111
00000090: de36 defb f7f3 10ec dde9 eb04 ee33 3223
000000a0: 130a 7ff2 13ac e201 1233 dc04 1aea be11
000000b0: d314 f12a f34a bf24 122d a702 dc0c f4c8
000000c0: fdea dde1 2313 fd16 fe2f 0bf6 05e9 dc7f
000000d0: 1a09 e3ff 190f 2a0b 221d 10f0 11d3 f23d
000000e0: fc0f 1de9 1021 0716 ed1e e9e8 c81c f3eb
000000f0: 1cff dc1b c00f f10a f0f0 f602 04eb 25f8

sequential/model/conv_dw_7_bn/FusedBatchNormV3;sequential/model/conv_dw_7/depthwise;sequential/model/conv_dw_12/depthwise i1 [1, 3, 3, 51]
-6 -17 -4 -7 -1 -8 -2 -1
7 -15 -3 -10 -40 -18 5 -13
14 -3 12 -29 19 3 -24 -4
-9 -4 0 8 16 -39 23 4
-6 0 -46 6 -23 -5 7 -1
3 2 8 -20 -5 -1 -6 19
2 1 -20 29 12 0 3 -58
11 -21 -4 -6 13 24 -9 127
72 -36 -12 -127 4 -4 -15 33
-6 -127 0 41 127 -16 7 -127
48 -2 -17 -31 25 -13 -54 46
-32 20 -20 -24 -127 54 8 33
29 -49 -69 -38 -2 -127 -18 5
-8 -10 -10 -8 8 -2 8 -11
-6 -9 -39 -30 8 -19 17 -3
8 -27 4 5 5 -4 -8 -5
2 6 14 -37 -11 1 -4 -3
-35 11 -32 -4 -6 -1 4 -4
-3 21 8 -7 -5 23 0 -1
-22 7 43 -25 21 -127 -20 -26
-10 -1 -8 -1 -28 -17 115 -8
-22 -120 -127 -19 -73 -3 5 -113
-16 -123 3 -15 30 -7 53 127
-20 7 29 -75 -27 11 -20 28
-34 -34 -1 28 -127 0 16 -16
-25 -22 8 13 127 82 127 127
42 127 -127 127 -127 127 127 127
41 127 -127 127 -48 101 127 -127
127 -127 104 127 7 -43 127 -127
94 127 -55 127 -127 127 -127 -127
127 127 127 127 -127 109 127 30
127 127 127 -127 127 125 108 16
00000000: faef fcf9 fff8 feff 07f1 fdf6 d8ee 05f3
00000010: 0efd 0ce3 1303 e8fc f7fc 0008 10d9 1704
00000020: fa00 d206 e9fb 07ff 0302 08ec fbff fa13
00000030: 0201 ec1d 0c00 03c6 0beb fcfa 0d18 f77f
00000040: 48dc f481 04fc f121 fa81 0029 7ff0 0781
00000050: 30fe efe1 19f3 ca2e e014 ece8 8136 0821
00000060: 1dcf bbda fe81 ee05 f8f6 f6f8 08fe 08f5
00000070: faf7 d9e2 08ed 11fd 08e5 0405 05fc f8fb
00000080: 0206 0edb f501 fcfd dd0b e0fc faff 04fc
00000090: fd15 08f9 fb17 00ff ea07 2be7 1581 ece6
000000a0: f6ff f8ff e4ef 73f8 ea88 81ed b7fd 058f
000000b0: f085 03f1 1ef9 357f ec07 1db5 e50b ec1c
000000c0: dede ff1c 8100 10f0 e7ea 080d 7f52 7f7f
000000d0: 2a7f 817f 817f 7f7f 297f 817f d065 7f81
000000e0: 7f81 687f 07d5 7f81 5e7f c97f 817f 8181
000000f0: 7f7f 7f7f 816d 7f1e 7f7f 7f81 7f7d 6c10

sequential/model/conv_pw_6/Conv2D i1 [51, 1, 1, 25]
37 -43 -20 -35 24 -12 -26 -26
24 -51 -20 -16 -19 -28 35 9
35 13 14 28 -49 6 127 84
-44 -15 127 3 -42 5 43 21
-13 -51 0 -6 -11 0 -16 -29
-55 -13 52 47 -4 -17 70 44
8 -27 38 -81 -45 -18 -12 -28
-17 -57 -2 -54 -51 -55 5 16
-31 40 -17 89 30 -95 33 43
-127 -35 54 23 -50 24 -30 -14
-48 4 -49 -3 55 38 -64 125
0 21 -113 127 -28 18 -71 -32
-24 4 -6 50 48 89 -21 48
18 -45 -10 -86 16 17 -32 -22
18 -10 -89 15 -14 26 127 -1
0 -27 -50 8 -121 57 33 29
14 -40 -60 -48 39 102 10 12
-17 -42 97 5 -113 -27 19 127
52 72 -21 -41 101 -78 -11 28
-9 -62 -10 9 -21 -20 33 -53
-27 -12 2 -36 -12 4 -20 -59
16 -25 127 -30 38 29 -10 9
38 -58 4 127 -27 31 -23 -29
0 -14 -17 86 -1 10 13 -72
24 10 -1 29 4 -65 -16 24
-10 -68 -5 -23 27 -23 0 -68
12 -26 10 9 13 -11 -74 36
0 75 33 -62 35 -6 -110 -86
127 90 107 -82 -36 -66 -114 -113
35 -79 17 36 -102 -1 -2 66
-127 -31 -45 -68 -16 -5 7 -61
4 -28 5 -13 -35 -31 -19 12
00000000: 25d5 ecdd 18f4 e6e6 18cd ecf0 ede4 2309
00000010: 230d 0e1c cf06 7f54 d4f1 7f03 d605 2b15
00000020: f3cd 00fa f500 f0e3 c9f3 342f fcef 462c
00000030: 08e5 26af d3ee f4e4 efc7 feca cdc9 0510
00000040: e128 ef59 1ea1 212b 81dd 3617 ce18 e2f2
00000050: d004 cffd 3726 c07d 0015 8f7f e412 b9e0
00000060: e804 fa32 3059 eb30 12d3 f6aa 1011 e0ea
00000070: 12f6 a70f f21a 7fff 00e5 ce08 8739 211d
00000080: 0ed8 c4d0 2766 0a0c efd6 6105 8fe5 137f
00000090: 3448 ebd7 65b2 f51c f7c2 f609 ebec 21cb
000000a0: e5f4 02dc f404 ecc5 10e7 7fe2 261d f609
000000b0: 26c6 047f e51f e9e3 00f2 ef56 ff0a 0db8
000000c0: 180a ff1d 04bf f018 f6bc fbe9 1be9 00bc
000000d0: 0ce6 0a09 0df5 b624 004b 21c2 23fa 92aa
000000e0: 7f5a 6bae dcbe 8e8f 23b1 1124 9aff fe42
000000f0: 81e1 d3bc f0fb 07c3 04e4 05f3 dde1 ed0c

sequential/model/conv_dw_6_bn/FusedBatchNormV3;sequential/model/conv_dw_6/depthwise i1 [1, 3, 3, 25]
63 94 77 106 87 57 -59 48
87 -44 -92 72 69 51 -7 -86
82 -69 51 -99 -63 84 -75 -106
-56 80 113 96 127 118 82 -92
86 112 127 -112 100 91 79 -12
-99 104 -97 94 -113 -92 105 -98
-84 -102 29 43 46 40 57 46
-36 43 46 -115 -41 36 40 57
-6 -48 44 -28 48 -66 -43 53
-34 -10 -60 93 99 105 97 96
88 -97 83 96 -37 -104 90 94
83 87 -106 97 -94 81 -110 -86
93 -101 -127 -68 127 127 127 112
127 127 -127 127 127 108 -127 127
127 127 112 -127 127 -127 127 -127
-127 127 -127 -103 -127 52 51 61
45 62 61 -55 65 62 -110 -47
52 62 86 28 -59 52 -48 59
-98 -67 67 -52 -8 -79 34 35
43 34 39 33 -45 36 24 -13
-36 37 36 47 -127 -47 37 -38
45 -65 -39 31 -45 -49 -25 55
50 52 42 46 55 -56 55 47
34 -42 53 47 78 -109 -55 45
-50 61 -65 -60 49 -54 -37 -46
24 27 30 21 21 41 -26 35
34 -77 -6 23 27 52 -22 -28
19 -26 32 -44 -32 34 -18 9
-42
00000000: 3f5e 4d6a 5739 c530 57d4 a448 4533 f9aa
00000010: 52bb 339d c154 b596 c850 7160 7f76 52a4
00000020: 5670 7f90 645b 4ff4 9d68 9f5e 8fa4 699e
00000030: ac9a 1d2b 2e28 392e dc2b 2e8d d724 2839
00000040: fad0 2ce4 30be d535 def6 c45d 6369 6160
00000050: 589f 5360 db98 5a5e 5357 9661 a251 92aa
00000060: 5d9b 81bc 7f7f 7f70 7f7f 817f 7f6c 817f
00000070: 7f7f 7081 7f81 7f81 817f 8199 8134 333d
00000080: 2d3e 3dc9 413e 92d1 343e 561c c534 d03b
00000090: 9ebd 43cc f8b1 2223 2b22 2721 d324 18f3
000000a0: dc25 242f 81d1 25da 2dbf d91f d3cf e737
000000b0: 3234 2a2e 37c8 372f 22d6 352f 4e93 c92d
000000c0: ce3d bfc4 31ca dbd2 181b 1e15 1529 e623
000000d0: 22b3 fa17 1b34 eae4 13e6 20d4 e022 ee09
000000e0: d6

sequential/model/conv_pw_5/Conv2D i1 [25, 1, 1, 25]
-26 25 -17 -57 33 111 -21 12
-127 37 5 -12 30 -28 -12 24
-28 -30 -7 -19 -18 86 -76 -5
-29 -14 -109 -62 -3 -34 94 -127
-10 48 -1 -86 22 -80 60 108
28 12 -22 18 -13 80 -34 93
-24 108 -127 -52 -39 -46 26 121
-21 21 25 71 84 -29 -32 49
-10 8 -19 0 -78 14 -6 90
-99 -29 13 -59 -45 6 37 15
18 47 47 -59 25 -30 127 -39
33 31 31 54 -4 -28 -10 0
-44 -19 10 -36 127 -12 -15 -101
-5 -28 57 20 53 15 7 66
63 26 7 37 -20 -8 6 91
49 19 -5 31 -62 -79 21 -45
50 19 45 50 -70 63 47 97
62 -22 -3 103 68 -78 25 -32
-22 -8 113 -127 38 44 10 31
-36 87 -51 63 36 11 -27 -45
11 -70 -13 -46 -77 38 -66 123
-33 127 42 2 -59 10 59 127
31 -25 -14 66 -66 26 25 26
20 105 -22 -33 20 -7 -63 53
-38 13 87 82 -12 35 -67 52
102 -5 51 127 -2 -107 30 0
45 -52 -44 -12 42 -58 5 -49
21 41 -12 116 17 17 29 25
-46 103 -127 19 -20 21 81 17
60 95 -24 -44 -100 -30 121 10
-94 49 5 75 52 -7 -96 11
-21 15 15 14 97 -57 31 5
00000000: e619 efc7 216f eb0c 8125 05f4 1ee4 f418
00000010: e4e2 f9ed ee56 b4fb e3f2 93c2 fdde 5e81
00000020: f630 ffaa 16b0 3c6c 1c0c ea12 f350 de5d
00000030: e86c 81cc d9d2 1a79 eb15 1947 54e3 e031
00000040: f608 ed00 b20e fa5a 9de3 0dc5 d306 250f
00000050: 122f 2fc5 19e2 7fd9 211f 1f36 fce4 f600
00000060: d4ed 0adc 7ff4 f19b fbe4 3914 350f 0742
00000070: 3f1a 0725 ecf8 065b 3113 fb1f c2b1 15d3
00000080: 3213 2d32 ba3f 2f61 3eea fd67 44b2 19e0
00000090: eaf8 7181 262c 0a1f dc57 cd3f 240b e5d3
000000a0: 0bba f3d2 b326 be7b df7f 2a02 c50a 3b7f
000000b0: 1fe7 f242 be1a 191a 1469 eadf 14f9 c135
000000c0: da0d 5752 f423 bd34 66fb 337f fe95 1e00
000000d0: 2dcc d4f4 2ac6 05cf 1529 f474 1111 1d19
000000e0: d267 8113 ec15 5111 3c5f e8d4 9ce2 790a
000000f0: a231 054b 34f9 a00b eb0f 0f0e 61c7 1f05

sequential/model/conv_dw_5_bn/FusedBatchNormV3;sequential/model/conv_dw_5/depthwise;sequential/model/conv_dw_6/depthwise i1 [1, 3, 3, 25]
14 14 -3 4 -2 -14 6 12
-5 12 -1 8 10 -7 -4 5
-11 -42 8 6 0 -6 -11 -10
-22 29 25 0 -17 83 -18 -25
15 -7 -9 -8 -36 60 -12 -77
-26 36 -78 7 -25 -47 -26 26
1 65 -1 20 -8 6 -34 -9
8 25 -4 12 -6 17 6 13
7 4 -16 -37 -15 -4 8 -4
-12 7 -55 60 42 -6 36 106
-30 -19 16 1 -49 -20 -11 117
-8 -65 -10 -30 56 37 -127 43
-56 -49 -121 -55 127 90 127 127
127 127 127 127 127 -127 -127 -127
27 35 -127 -127 127 127 93 -72
-127 -127 127 74 127 -24 31 -12
9 43 -60 -46 -4 -22 -12 -2
9 88 17 -6 3 -61 39 -127
-98 52 -18 -47 54 -82 -21 -53
-6 -14 -41 -8 6 1 -10 10
5 6 -33 -20 11 9 -13 -6
18 33 3 4 -3 127 -1 -5
-127 -18 -20 33 -54 -28 0 -16
-31 -8 -35 127 -127 -10 0 20
-30 22 -36 -66 18 6 -79 47
-5 -42 -6 -9 -42 -6 6 16
-7 20 2 10 -22 -28 14 1
-18 -5 -35 -12 22 -4 -8 -52
-36
00000000: 0e0e fd04 fef2 060c fb0c ff08 0af9 fc05
00000010: f5d6 0806 00fa f5f6 ea1d 1900 ef53 eee7
00000020: 0ff9 f7f8 dc3c f4b3 e624 b207 e7d1 e61a
00000030: 0141 ff14 f806 def7 0819 fc0c fa11 060d
00000040: 0704 f0db f1fc 08fc f407 c93c 2afa 246a
00000050: e2ed 1001 cfec f575 f8bf f6e2 3825 812b
00000060: c8cf 87c9 7f5a 7f7f 7f7f 7f7f 7f81 8181
00000070: 1b23 8181 7f7f 5db8 8181 7f4a 7fe8 1ff4
00000080: 092b c4d2 fcea f4fe 0958 11fa 03c3 2781
00000090: 9e34 eed1 36ae ebcb faf2 d7f8 0601 f60a
000000a0: 0506 dfec 0b09 f3fa 1221 0304 fd7f fffb
000000b0: 81ee ec21 cae4 00f0 e1f8 dd7f 81f6 0014
000000c0: e216 dcbe 1206 b12f fbd6 faf7 d6fa 0610
000000d0: f914 020a eae4 0e01 eefb ddf4 16fc f8cc
000000e0: dc

sequential/model/conv_pw_4/Conv2D i1 [25, 1, 1, 12]
34 83 82 -34 -6 -69 -30 -27
-25 127 3 -10 35 -7 53 5
17 -127 -15 12 -11 -9 -12 4
-16 2 -8 28 127 -11 11 5
5 -4 40 17 -37 -52 70 -60
62 127 29 34 11 31 -33 1
13 -75 31 -49 -100 -76 -43 -127
-13 54 -61 17 -5 31 -105 119
50 49 -115 -30 14 -95 127 8
35 23 -32 -4 75 127 -44 39
-7 -53 107 12 127 0 53 8
31 -22 -25 -12 -2 51 86 -2
-93 31 -52 4 -82 -7 81 -28
-23 24 -127 -17 7 10 -30 -49
-57 -40 127 -10 -33 78 36 20
24 3 -98 -63 -12 127 -6 0
-103 -6 55 12 -103 -117 61 79
127 -43 21 -58 -72 14 -125 -18
-45 36 -14 3 51 -8 -127 -26
8 7 -6 1 33 -1 49 -9
23 -127 -14 24 -17 -36 0 6
27 -17 -127 33 -15 -38 -1 12
45 125 -27 -15 127 -12 20 -6
-39 -16 80 -3 -16 35 57 7
127 -27 86 -2 18 2 26 8
6 13 64 -1 123 74 10 35
-127 -27 4 16 48 31 13 35
-17 -6 -22 4 -9 127 0 -10
16 31 -30 14 -51 13 25 -92
85 -11 43 -127 73 49 8 -26
-1 -10 -3 7 -43 4 127 5
5 -18 -12 15 38 -37 19 -127
00000000: 2253 52de fabb e2e5 e77f 03f6 23f9 3505
00000010: 1181 f10c f5f7 f404 f002 f81c 7ff5 0b05
00000020: 05fc 2811 dbcc 46c4 3e7f 1d22 0b1f df01
00000030: 0db5 1fcf 9cb4 d581 f336 c311 fb1f 9777
00000040: 3231 8de2 0ea1 7f08 2317 e0fc 4b7f d427
00000050: f9cb 6b0c 7f00 3508 1fea e7f4 fe33 56fe
00000060: a31f cc04 aef9 51e4 e918 81ef 070a e2cf
00000070: c7d8 7ff6 df4e 2414 1803 9ec1 f47f fa00
00000080: 99fa 370c 998b 3d4f 7fd5 15c6 b80e 83ee
00000090: d324 f203 33f8 81e6 0807 fa01 21ff 31f7
000000a0: 1781 f218 efdc 0006 1bef 8121 f1da ff0c
000000b0: 2d7d e5f1 7ff4 14fa d9f0 50fd f023 3907
000000c0: 7fe5 56fe 1202 1a08 060d 40ff 7b4a 0a23
000000d0: 81e5 0410 301f 0d23 effa ea04 f77f 00f6
000000e0: 101f e20e cd0d 19a4 55f5 2b81 4931 08e6
000000f0: fff6 fd07 d504 7f05 05ee f40f 26db 1381

sequential/model/conv_dw_4_bn/FusedBatchNormV3;sequential/model/conv_dw_4/depthwise i1 [1, 3, 3, 12]
100 74 69 -47 93 -64 26 117
-57 74 -95 -62 88 94 90 -106
94 -85 47 110 -127 101 -103 -35
-5 30 21 -69 37 -57 3 15
-77 38 -33 -127 123 101 105 -54
114 -98 84 127 -71 94 -124 -91
127 127 127 -127 127 -127 127 125
-127 127 -127 -79 -2 43 27 -82
50 -81 50 25 -76 56 -39 14
47 42 53 -9 46 -46 55 30
-23 33 -47 -5 70 53 55 -46
63 -60 91 33 -28 47 -46 -1
14 15 3 -23 25 -51 43 1
-2 29 -14 10
00000000: 644a 45d1 5dc0 1a75 c74a a1c2 585e 5a96
00000010: 5eab 2f6e 8165 99dd fb1e 15bb 25c7 030f
00000020: b326 df81 7b65 69ca 729e 547f b95e 84a5
00000030: 7f7f 7f81 7f81 7f7d 817f 81b1 fe2b 1bae
00000040: 32af 3219 b438 d90e 2f2a 35f7 2ed2 371e
00000050: e921 d1fb 4635 37d2 3fc4 5b21 e42f d2ff
00000060: 0e0f 03e9 19cd 2b01 fe1d f20a

sequential/model/conv_pw_3/Conv2D i1 [12, 1, 1, 12]
107 28 -126 127 -23 27 103 -36
50 -35 0 29 3 51 103 50
-17 18 -41 127 -25 -59 -4 22
127 -36 1 -16 -7 14 -42 45
15 23 0 1 26 -26 -3 22
-18 -82 -28 -13 14 -11 2 127
65 127 -20 -42 -75 -40 19 13
28 10 17 22 71 6 -30 -2
-14 -3 1 -6 -64 -127 5 3
11 30 -5 -11 127 -4 3 5
-7 -16 1 3 -35 6 14 -11
24 127 -9 3 -17 10 -10 54
-53 -7 -21 -20 22 76 14 45
-14 -39 113 -127 -127 12 38 -6
24 29 2 6 38 66 5 9
47 -6 -29 62 -43 -127 3 3
22 -31 -8 -13 59 -1 41 2
-108 127 -56 -55 -12 -11 -18 -7
00000000: 6b1c 827f e91b 67dc 32dd 001d 0333 6732
00000010: ef12 d77f e7c5 fc16 7fdc 01f0 f90e d62d
00000020: 0f17 0001 1ae6 fd16 eeae e4f3 0ef5 027f
00000030: 417f ecd6 b5d8 130d 1c0a 1116 4706 e2fe
00000040: f2fd 01fa c081 0503 0b1e fbf5 7ffc 0305
00000050: f9f0 0103 dd06 0ef5 187f f703 ef0a f636
00000060: cbf9 ebec 164c 0e2d f2d9 7181 810c 26fa
00000070: 181d 0206 2642 0509 2ffa e33e d581 0303
00000080: 16e1 f8f3 3bff 2902 947f c8c9 f4f5 eef9

sequential/model/conv_dw_3_bn/FusedBatchNormV3;sequential/model/conv_dw_3/depthwise;sequential/model/conv_dw_4/depthwise i1 [1, 3, 3, 12]
48 15 2 -89 118 -7 -50 2
37 -14 -26 -4 48 2 127 -118
127 -33 -100 -1 25 -23 4 5
4 4 26 14 -7 10 -33 6
16 -14 4 -1 51 -24 109 -127
-5 93 -127 41 127 -96 -127 -84
127 -127 102 -90 -25 127 -49 95
122 -127 30 127 -30 33 -32 29
7 -32 -63 -127 -8 26 18 4
-6 12 53 -51 1 -27 11 -34
-28 13 6 1 -16 11 -55 -22
5 -48 -18 -78 -38 39 -8 -4
27 0 29 -4 -1 9 12 122
11 -10 5 -7
00000000: 300f 02a7 76f9 ce02 25f2 e6fc 3002 7f8a
00000010: 7fdf 9cff 19e9 0405 0404 1a0e f90a df06
00000020: 10f2 04ff 33e8 6d81 fb5d 8129 7fa0 81ac
00000030: 7f81 66a6 e77f cf5f 7a81 1e7f e221 e01d
00000040: 07e0 c181 f81a 1204 fa0c 35cd 01e5 0bde
00000050: e40d 0601 f00b c9ea 05d0 eeb2 da27 f8fc
00000060: 1b00 1dfc ff09 0c7a 0bf6 05f9

sequential/model/conv_pw_2/Conv2D i1 [12, 1, 1, 6]
127 30 71 89 80 16 -77 127
8 -9 7 -18 -16 -38 118 -57
127 -32 0 -35 -37 92 -38 127
-33 127 0 -76 0 -30 87 3
-6 -127 -9 -120 58 -22 120 -17
127 -17 14 -10 11 127 -1 -9
41 8 0 -127 -1 13 -39 -12
-2 127 1 -11 -13 45 -4 -127
-3 10 67 1 -9 -127 -13 -104
00000000: 7f1e 4759 5010 b37f 08f7 07ee f0da 76c7
00000010: 7fe0 00dd db5c da7f df7f 00b4 00e2 5703
00000020: fa81 f788 3aea 78ef 7fef 0ef6 0b7f fff7
00000030: 2908 0081 ff0d d9f4 fe7f 01f5 f32d fc81
00000040: fd0a 4301 f781 f398

sequential/model/conv_dw_2_bn/FusedBatchNormV3;sequential/model/conv_dw_2/depthwise i1 [1, 3, 3, 6]
-52 70 -8 -39 121 51 -77 96
29 -84 -53 77 -41 57 -8 -43
-66 31 -76 91 127 -76 -127 75
-127 127 -71 -127 73 127 -73 63
-52 -64 35 58 -25 25 -119 -35
-9 23 -54 30 38 -57 -31 51
-34 11 58 -23 26 23
00000000: cc46 f8d9 7933 b360 1dac cb4d d739 f8d5
00000010: be1f b45b 7fb4 814b 817f b981 497f b73f
00000020: ccc0 233a e719 89dd f717 ca1e 26c7 e133
00000030: de0b 3ae9 1a17

sequential/model/conv_pw_1/Conv2D i1 [6, 1, 1, 3]
-115 127 -25 127 -15 -4 47 8
127 -60 -7 -127 70 3 127 3
-8 -127
00000000: 8d7f e77f f1fc 2f08 7fc4 f981 4603 7f03
00000010: f881

sequential/model/conv_dw_1_bn/FusedBatchNormV3;sequential/model/conv_dw_1/depthwise i1 [1, 3, 3, 3]
2 -10 -1 14 -3 1 9 14
-6 -2 8 2 127 112 127 79
-127 -109 -5 -9 8 -108 -6 25
-105 15 -35
00000000: 02f6 ff0e fd01 090e fafe 0802 7f70 7f4f
00000010: 8193 fbf7 0894 fa19 970f dd

sequential/model/conv1/Conv2D i1 [3, 3, 3, 1]
76 118 55 -46 -25 27 -64 -127
-68 42 -63 23 -84 127 -53 43
-68 30 58 -9 -75 124 -29 -127
68 -1 -62
00000000: 4c76 37d2 e71b c081 bc2a c117 ac7f cb2b
00000010: bc1e 3af7 b57c e381 44ff c2
